exploration/final_model.pt (torch, 157765 bytes, 9 tensors)

lstm1.weight_ih_l0 f4 [256, 35]
0.90705156 0.8098055 0.7023083 0.7063544 0.9991987 0.8779734 1.0186455 0.8843291
0.8258045 0.842035 0.8776468 1.1219385 0.5187734 0.7986435 0.74289024 0.7555445
0.89465827 0.3729785 0.7311026 0.6554816 0.8974671 0.81878567 0.9770167 0.72404504
0.65959215 0.79616225 0.55586934 0.5541243 0.78324085 1.0551635 0.88637835 0.9865911
0.83752394 0.7826903 0.988895 -0.33843598 -0.09141188 -0.2851752 -0.27840623 -0.04840199
-0.5780676 -0.082859434 0.066508114 -0.0924093 -0.038977228 -0.37438846 -0.14771256 -0.009703442
0.18015209 -0.40251058 -0.49134398 -0.06636881 0.14329785 -0.49114993 -0.2386324 0.12082732
-0.35351542 0.4862256 -0.37603045 -0.3653642 -0.5395038 0.011890821 0.2283341 -0.13775155
0.12956363 -0.11351112 -0.008962989 -0.012602657 0.005772397 0.049474128 0.19420588 0.19057688
-0.049929366 0.25289798 0.16279912 3.539957e-06 0.252323 0.2880906 0.0978536 0.10251271
0.028764034 0.16404355 -0.42324993 0.11311342 0.34742445 0.25289473 0.5769851 -0.08177542
0.2087415 0.5178012 0.33995348 0.87595296 -0.65442044 0.29962105 0.07758126 0.18340258
-0.3489876 0.24915187 0.14860617 0.12996957 -0.010998248 0.23389646 0.38529408 0.3743117
0.35109186 -0.37018794 -0.17603573 -0.6002385 0.00020381995 -0.08520448 -0.27164102 -0.5166679
-0.5330288 -0.35250896 -0.43809512 -0.20226139 -0.13626713 -0.22962457 -0.29705998 -0.1747879
-0.58427495 -0.12257721 -0.43434948 0.33007562 -0.14761084 0.07320338 -0.19341257 0.10457204
-0.3913115 -0.30374444 -0.1634843 -0.2925352 -0.16512832 -0.3154372 0.17880061 -0.39227194
-0.31232312 -0.44835162 -0.18200654 0.12447058 -0.4182539 -0.32942498 -0.3935846 -0.4567735
-0.39634836 -0.5069316 -0.30666792 -0.40997466 -0.55300075 -0.27762297 -0.60583913 -0.2161639
-0.01871793 0.021039113 -0.54694474 -0.5700614 -0.41476947 0.076436624 -0.19603804 -0.5972294
-0.3923192 -0.5955245 -0.044417933 -0.6078478 -0.43847555 -0.3098721 -0.09082116 -0.14202794
-0.28190845 -0.08427269 -0.7185246 -0.45380777 -0.3083631 -0.3244868 -0.53671694 -0.55329454
-0.1054786 -0.6604581 -0.22997996 -0.2997044 -0.4321892 -0.4100026 -0.33227837 -0.48845023
-0.27311292 -0.46397942 -0.28276387 0.03534542 0.5028446 -0.68243295 -0.6552744 -0.26228926
-0.16040067 0.19350144 -0.6245034 -0.3438185 -0.504896 -0.12154268 -0.5715534 -0.4742489
-0.37192315 -0.0067427456 0.05073455 -0.3406929 -0.18101968 -0.60910696 -0.25844723 -0.4838719
-0.5296839 -0.3434413 -0.15776438 0.13491672 -0.38746756 0.08123632 0.038262874 0.08278006
-0.151488 -0.12533513 -0.3487462 0.14115444 0.19528705 0.31508377 0.43686503 0.47044477
0.008480109 -0.16955158 0.045998797 0.058179375 0.24489555 -0.26346964 0.088622615 0.06294295
0.51750165 -0.35349804 -0.32386294 -0.21831119 0.48755914 0.18102568 0.05831313 0.1055205
-0.26915932 -0.13078141 0.0037471727 -0.046359457 0.003638409 0.8972352 0.90332836 0.6447352
0.70175505 0.79766965 0.70420974 0.63493407 0.89949983 0.9247806 0.9812427 0.85307276
00000000: 8834 683f 6a4f 4f3f 7aca 333f a4d3 343f
00000010: 7ccb 7f3f ddc2 603f fa62 823f 6463 623f
00000020: ec67 533f 9b8f 573f 76ad 603f ae9b 8f3f
00000030: 55ce 043f e773 4c3f 0e2e 3e3f 5d6b 413f
00000040: 5308 653f 0af7 be3e 8a29 3b3f a4cd 273f
00000050: 67c0 653f f09b 513f c41d 7a3f 045b 393f
00000060: 08db 283f 4ad1 4b3f 744d 0e3f 17db 0d3f
00000070: 7982 483f 990f 873f b1e9 623f 3c91 7c3f
00000080: f867 563f 645e 483f 3928 7d3f 7b47 adbe
00000090: 2736 bbbd 7c02 92be 438b 8ebe 2a41 46bd
000000a0: 3dfc 13bf 35b2 a9bd 6835 883d 1641 bdbd
000000b0: 96a6 1fbd d8af bfbe f641 17be 30fb 1ebc
000000c0: ca79 383e de15 cebe 7091 fbbe 5fec 87bd
000000d0: acbc 123e 0178 fbbe 0d5c 74be 5074 f73d
000000e0: f9ff b4be 90f2 f83e 1087 c0be 0411 bbbe
000000f0: ec1c 0abf b8d1 423c 6ad0 693e be0e 0dbe
00000100: 54ac 043e 8578 e8bd 80d9 12bc 607b 4ebc
00000110: 6026 bd3b 62a5 4a3d e8dd 463e 9626 433e
00000120: bc82 4cbd d87b 813e d0b4 263e 0090 6d36
00000130: 7b30 813e 9c80 933e 7867 c83d 2ff2 d13d
00000140: 8da2 eb3c 08fb 273e 37b4 d8be 02a8 e73d
00000150: 9ee1 b13e 6b7b 813e 4cb5 133f df79 a7bd
00000160: 55c0 553e 9f8e 043f 620e ae3e 743e 603f
00000170: 1988 27bf ee67 993e ece2 9e3d e3cd 3b3e
00000180: 81ae b2be ab21 7f3e 372c 183e be16 053e
00000190: ff31 34bc 8e82 6f3e 4445 c53e c8a5 bf3e
000001a0: 50c2 b33e 4689 bdbe b642 34be 3ba9 19bf
000001b0: 80b8 5539 b07f aebd 8814 8bbe 5944 04bf
000001c0: 9374 08bf 0e7c b4be 014e e0be 9c1d 4fbe
000001d0: 9c89 0bbe b422 6bbe 3f18 98be 99fb 32be
000001e0: 0b93 15bf c309 fbbd 0e63 debe acff a83e
000001f0: 4c27 17be a7eb 953d f20d 46be de29 d63d
00000200: fb59 c8be 6484 9bbe 6e68 27be 2cc7 95be
00000210: 6617 29be fc80 a1be 8217 373e ded7 c8be
00000220: d1e8 9fbe 588e e5be ec5f 3abe 6eea fe3d
00000230: 6025 d6be 64aa a8be ec83 c9be 37de e9be
00000240: 2cee cabe 45c6 01bf 9403 9dbe 33e8 d1be
00000250: 7591 0dbf 9924 8ebe 4618 1bbf 125a 5dbe
00000260: 5856 99bc 385a ac3c 9204 0cbf 8bef 11bf
00000270: aa5c d4be ce8a 9c3d 32be 48be 07e4 18bf
00000280: 10de c8be 4b74 18bf 94ef 35bd ea9b 1bbf
00000290: de7f e0be 8ea7 9ebe 7200 babd c66f 11be
000002a0: 4e56 90be 2997 acbd 3af1 37bf 7e59 e8be
000002b0: c5e1 9dbe 2223 a6be 4866 09bf b6a4 0dbf
000002c0: 2a05 d8bd c813 29bf de7f 6bbe db72 99be
000002d0: e747 ddbe dceb d1be 6420 aabe 2616 fabe
000002e0: 75d5 8bbe b68e edbe 6dc6 90be 5cc6 103d
000002f0: 6cba 003f edb3 2ebf 10c0 27bf c74a 86be
00000300: 1340 24be 3e25 463e 74df 1fbf fa08 b0be
00000310: dd40 01bf 5eeb f8bd 5351 12bf c0d0 f2be
00000320: b66c bebe 40f2 dcbb 08cf 4f3d 4d6f aebe
00000330: 395d 39be 6fee 1bbf 3253 84be 0fbe f7be
00000340: 5d99 07bf 8ad7 afbe fc8c 21be 9c27 0a3e
00000350: 2662 c6be 3a5f a63d 88b9 1c3d 9888 a93d
00000360: ac1f 1bbe da57 00be dd8e b2be ca8a 103e
00000370: 54f9 473e a952 a13e c6ac df3e 23de f03e
00000380: 28f0 0a3c ee9e 2dbe 3c69 3c3d 7f4d 6e3d
00000390: e6c5 7a3e 7ee5 86be c67f b53d 3ce8 803d
000003a0: fd7a 043f b2fd b4be 5dd1 a5be f88c 5fbe
000003b0: 5aa1 f93e cc5e 393e c0d9 6e3d 221b d83d
000003c0: 40cf 89be 90eb 05be 2093 753b 6ae3 3dbd
000003d0: 6072 6e3b 35b1 653f 8740 673f 5e0d 253f
000003e0: 38a6 333f 1434 4c3f 1747 343f 0a8b 223f
000003f0: 9f45 663f 6cbe 6c3f b932 7b3f fa62 5a3f

lstm1.weight_hh_l0 f4 [256, 64]
-0.45763102 0.03459097 -0.4984872 0.44463587 0.038359188 0.082859136 0.5659047 0.25573397
0.10032341 0.42194444 -0.04029189 -0.39528775 -0.08688297 0.25900853 0.49483913 -0.017534569
-0.180426 -0.36410087 -0.10901595 0.05760264 -0.13503999 -0.03693825 -0.5165707 0.5496539
0.41296458 0.052459825 -0.25061846 -0.11876175 -0.53997916 0.3195239 -0.20673637 0.37653062
0.081618525 -0.094509915 0.7532593 -0.65986025 0.013014402 -0.20667976 0.04156324 -0.16462103
-0.25592214 0.22906536 -0.005034387 -0.05815527 -0.10224821 0.39390475 -0.15391599 -0.34408516
-0.112088 -0.048564777 0.35395017 -0.38339654 0.14846884 -0.06463877 -0.41409433 0.2612079
-0.20739302 0.16194545 0.1405181 -0.08108418 -0.27258393 -0.63550425 -0.67695093 -0.06332241
0.36213487 0.2905894 0.24813548 -0.31318575 -0.47556382 -0.6571399 0.84552896 -0.20870224
-1.6519022 -0.2394457 -0.057466004 0.090512365 0.6798389 0.38155565 0.06435435 -0.50739974
0.104315355 -0.7792042 0.36061192 -0.2754369 -0.17957531 0.23420474 0.38009533 -0.002476804
-0.06690804 -0.26168907 -0.8578905 -0.56984174 0.043273076 -0.5485098 0.12004501 0.56290114
-0.7554951 0.59602475 -0.14581542 0.6651266 -0.24413906 -0.122795194 -0.8260968 0.45759863
0.36225826 0.7519598 -0.6428466 0.6729125 -0.30783254 0.3441626 0.18652768 0.13355401
0.66868305 -0.4937404 -0.27614462 0.6201072 -0.6782254 0.078292325 0.18318635 -0.9775859
0.7385834 0.38131648 0.37689644 0.25359523 0.44931182 0.4719003 1.193674 0.16043492
0.29945126 -0.7232078 0.15184498 0.3544309 0.5527563 0.6857224 -0.7051989 0.07717274
-0.20897418 0.47657317 -0.21947525 0.34215513 -0.4617194 -0.6800108 0.1863577 0.6599754
0.3467152 0.39311242 -0.7222026 -0.3937437 0.22981544 -0.28577724 -0.56588006 -0.16837195
-0.11172884 0.64260054 0.41465956 0.54264253 0.49780396 0.38963968 0.1492804 0.27991712
0.26403594 -0.280405 0.56675243 0.032140825 0.25813407 -0.46919057 0.3906614 -0.7664919
-0.65369356 -0.39545277 0.21680804 -0.31095383 0.46638587 -0.38344246 -0.43992698 0.071351975
-0.4758387 0.6955375 0.78635544 -0.21645817 0.6082514 0.002888076 0.12720063 0.2811992
-0.6116831 -0.14149965 -0.4758628 -0.6483748 0.12547937 -0.24919116 -0.36744982 0.15911168
-0.1329024 -0.56310135 -0.01015842 -0.27372378 0.29280257 0.37789398 -0.45208997 -0.20300406
-0.032662015 0.026233602 0.1269908 0.11344454 -0.22960453 -0.19398439 0.059808325 0.31546286
0.6185728 -0.08125005 -0.27986413 0.34063935 0.20923658 0.008041504 -0.2544973 -0.6785738
0.15257776 0.12230705 0.34546095 0.36732137 -0.059087627 0.24640453 0.18205275 0.09623481
0.3299504 -0.58675677 -0.31910372 0.26401526 0.156324 0.18187883 0.08785483 -0.20718916
-0.41337147 -0.6021657 0.35674894 -0.48551413 0.43739802 -0.3293402 0.013951687 0.13491488
-0.41059545 0.36351576 -0.067900494 -0.28637698 0.3787443 0.26801142 0.16819452 0.2811341
-0.57612693 -0.6836084 0.16804647 -0.35110047 -0.16060789 -0.08044115 -0.16990882 0.10715458
00000000: 9d4e eabe 43af 0d3d b739 ffbe 50a7 e33e
00000010: 861e 1d3d 0db2 a93d 21df 103f 90ef 823e
00000020: 5c76 cd3d 1a09 d83e 1c09 25bd 2863 cabe
00000030: b3ef b1bd c49c 843e 8e5b fd3e a8a4 8fbc
00000040: 98c1 38be 6e6b babe c143 dfbd bff0 6b3d
00000050: ec47 0abe 904c 17bd fa3d 04bf 1eb6 0c3f
00000060: 1870 d33e 1de0 563d 1051 80be 5c39 f3bd
00000070: 133c 0abf a398 a33e b3b2 53be 9fc8 c03e
00000080: 9d27 a73d 6a8e c1bd 9ad5 403f 9aec 28bf
00000090: 5c3a 553c dca3 53be 373e 2a3d 6a92 28be
000000a0: 3a08 83be 1c90 6a3e 80f7 a4bb 3834 6ebd
000000b0: 8267 d1bd e2ad c93e 279c 1dbe ee2b b0be
000000c0: 658e e5bd dceb 46bd f538 b53e 8d4c c4be
000000d0: 3708 183e 5561 84bd 2c04 d4be 0bbd 853e
000000e0: d65e 54be 07d5 253e fae3 0f3e 760f a6bd
000000f0: 1f90 8bbe 68b0 22bf a84c 2dbf 2eaf 81bd
00000100: be69 b93e 22c8 943e 3a17 7e3e e259 a0be
00000110: 1a7d f3be 523a 28bf 9674 583f 0ab6 55be
00000120: 8871 d3bf 4131 75be 7961 6bbd 8c5e b93d
00000130: ec09 2e3f 435b c33e 37cc 833d f3e4 01bf
00000140: 4aa3 d53d ed79 47bf 20a2 b83e 1106 8dbe
00000150: 97e2 37be 5ed3 6f3e db9b c23e e051 22bb
00000160: 1507 89bd 1cfc 85be b69e 5bbf 26e1 11bf
00000170: 1c3f 313d 236b 0cbf 28da f53d 4a1a 103f
00000180: 2068 41bf 1495 183f a350 15be bd45 2a3f
00000190: 97ff 79be 0c7c fbbd 147b 53bf 5e4a ea3e
000001a0: ea79 b93e 7080 403f 9891 24bf fe43 2c3f
000001b0: 3a9c 9dbe 1536 b03e 1d01 3f3e 62c2 083e
000001c0: d02e 2b3f 8bcb fcbe d462 8dbe 58bf 1e3f
000001d0: 2ea0 2dbf ba57 a03d 3495 3b3e 1243 7abf
000001e0: cd13 3d3f ea3b c33e 92f8 c03e 3cd7 813e
000001f0: 330c e63e eb9c f13e 4fca 983f 0d49 243e
00000200: ad51 993e 2524 39bf 407d 1b3e f877 b53e
00000210: 7081 0d3f 818b 2f3f ea87 34bf be0c 9e3d
00000220: 54fd 55be 6601 f43e 1fbe 60be f52e af3e
00000230: 7c66 ecbe 3015 2ebf 8ed4 3e3e 26f4 283f
00000240: a884 b13e 0846 c93e 45e2 38bf c698 c9be
00000250: bd54 6b3e 6551 92be 84dd 10bf b269 2cbe
00000260: 17d2 e4bd 7881 243f 424e d43e 9fea 0a3f
00000270: 29e0 fe3e da7e c73e f6dc 183e 4c51 8f3e
00000280: b82f 873e 3f91 8fbe b016 113f 19a6 033d
00000290: 262a 843e bf39 f0be c504 c83e d038 44bf
000002a0: 7658 27bf c978 cabe ed02 5e3e 5735 9fbe
000002b0: 21ca ee3e 9252 c4be 1c3e e1be fc20 923d
000002c0: 21a1 f3be bf0e 323f 974e 493f 36a7 5dbe
000002d0: 5db6 1b3f e045 3d3b e240 023e 57f9 8f3e
000002e0: 4397 1cbf 49e5 10be 4aa4 f3be e4fb 25bf
000002f0: aa7d 003e f82b 7fbe 6222 bcbe 2cee 223e
00000300: 9117 08be 6927 10bf 806f 26bc 8625 8cbe
00000310: 38ea 953e 527b c13e 5678 e7be 4ce0 4fbe
00000320: 9bc8 05bd dae7 d63c e009 023e 9c55 e83d
00000330: 731d 6bbe d8a3 46be 93f9 743d 5984 a13e
00000340: c95a 1e3f 6d66 a6bd 5a4a 8fbe 4868 ae3e
00000350: 1d42 563e 83c0 033c 784d 82be 03b7 2dbf
00000360: 583d 1c3e 1e7c fa3d 42e0 b03e 8c11 bc3e
00000370: de05 72bd 7851 7c3e 096c 3a3e c216 c53d
00000380: 42ef a83e b135 16bf 9061 a3be 022d 873e
00000390: 6613 203e 723e 3a3e 3ced b33d 6529 54be
000003a0: 6da5 d3be 8827 1abf cca7 b63e 4f95 f8be
000003b0: a2f2 df3e 479f a8be 9e95 643c 2027 0a3e
000003c0: 9139 d2be bd1e ba3e 6a0f 8bbd 01a0 92be
000003d0: c6ea c13e cb38 893e 2f3b 2c3e cff0 8f3e
000003e0: 0e7d 13bf f600 2fbf 6014 2c3e 71c3 b3be
000003f0: 6576 24be 54be a4bd 94fc 2dbe dc73 db3d

lstm1.bias_ih_l0 f4 [256]
0.6346177 -0.1966096 0.35962048 -0.24349615 -0.43301827 -0.47394472 -0.074801676 1.01417
-0.8444295 0.5103375 -0.43248016 0.8579777 -0.4697302 -0.26912683 0.57529104 -0.2122987
-0.8464155 0.24892628 -0.32197878 -0.044800922 -0.6019958 0.7584665 0.5534346 0.0004322473
-0.5834745 0.05644633 -0.3822327 -0.12120075 0.35608974 -0.2985524 -0.46099764 0.22034071
-0.19408874 -0.7519922 0.9554633 -0.546793 0.7208049 0.7333193 -0.27591702 -0.28956014
0.23104113 -0.6844289 -0.4062098 -0.24142815 -0.39250168 0.29765683 -0.017206106 -0.66892344
-0.27967316 -0.53755254 0.41898006 -0.46283162 -0.5384799 0.6157101 0.25458524 -0.9334335
-0.24559627 -0.1834096 -0.41867423 -0.23781615 -0.22669421 -0.5092028 0.16166823 0.007824168
0.23694113 -0.56312186 -0.13480395 -0.032269195 -0.7076371 -0.51903903 0.2258685 0.7409481
-0.7137569 0.19444887 -0.72864103 0.91681266 -0.33119592 -0.8160785 0.41063082 -0.7311072
-0.7341098 0.10847341 -0.3535014 -0.24331181 -0.46501902 0.6954484 0.5773095 0.2932347
-0.9489587 -0.3202018 -0.4020841 -0.5371611 0.12399943 -0.5855835 -0.6088543 0.33315438
-0.38156593 -0.44622982 0.35605896 -0.6558197 0.7623515 0.57624537 -0.15729687 -0.5372697
0.32653043 -0.2355392 -0.2705936 -0.5304837 -0.23829062 0.46354508 0.28998885 -0.9734699
-0.17027003 -0.78772825 0.61854565 -0.20235135 -0.35738558 0.7804636 0.35492182 0.108924404
-0.5999043 0.5550387 -0.56889784 -0.63151425 -0.11763427 -0.99934566 0.017449707 0.56628233
-0.15348606 0.94817513 0.5475816 -0.6075213 -0.33900216 -0.829725 0.77778757 0.7946619
-0.93088984 0.1315952 0.7078387 -0.7726377 0.7074732 -0.09927384 0.8328114 -0.7846315
0.21258911 -0.86583954 0.5474379 -0.66369265 -0.4181872 -0.8854387 -0.39787942 0.88428545
-0.4029041 -0.4425466 -0.8093079 -0.68936735 -0.7578496 -0.41484627 -0.4146156 0.3551556
-0.1760286 0.6072868 0.8448534 -0.16759107 0.6468969 -0.60682815 -0.27713215 0.9142505
0.4931696 0.9284537 -0.59571975 0.7956724 -0.5180758 0.96964455 -0.54551107 0.20561174
0.9322547 -0.79700655 0.814398 0.6610382 -0.39672065 0.65631115 -0.6250926 -0.8059341
0.33411548 0.64128965 0.57545507 0.772988 0.07985271 -0.0032987744 0.08245595 -0.8022015
0.4326833 -0.8751665 -0.9104017 -0.38732955 -0.49689946 -0.77729094 -0.054722212 1.1415539
-0.40045524 -0.69022673 -0.7233796 0.5814309 -0.53070724 -0.36473224 -0.06301141 -0.46486923
-0.7320929 -0.14361294 -0.84695613 -0.019173212 -0.8561434 0.68489087 -0.15901706 -0.31154558
-0.51963675 -0.13351487 -0.7857097 0.014402628 0.7932594 -0.4260159 -0.35119274 -0.7617394
0.41730082 -0.5427484 0.8571441 -0.45190454 0.46558815 -0.8223967 -0.44163576 -0.76043737
-0.7153454 -0.42930043 -0.6030757 -1.1297725 -0.8948156 0.73374075 -0.06320302 -0.78400195
-0.3373847 -0.8989546 -0.12096746 -0.7335079 -0.39591268 0.3148042 0.894184 -0.35572565
-0.6301578 -0.2780851 -0.26613343 -0.57990646 -0.085152015 -0.5872251 -0.6732239 -0.38089186
00000000: 4e76 223f 0754 49be 2d20 b83e 0e57 79be
00000010: 92b4 ddbe e2a8 f2be 9f31 99bd 53d0 813f
00000020: 882c 58bf 7aa5 023f 0a6e ddbe 6da4 5b3f
00000030: 7a80 f0be feca 89be 4646 133f d564 59be
00000040: b0ae 58bf 88e6 7e3e 67da a4be 2c81 37bd
00000050: 661c 1abf dc2a 423f e4ad 0d3f 409f e239
00000060: 965e 15bf 4434 673d 01b4 c3be 1938 f8bd
00000070: 6551 b63e dcdb 98be e207 ecbe ffa0 613e
00000080: 33bf 46be 9082 40bf 3e99 743f a0fa 0bbf
00000090: ac86 383f d0ba 3b3f ff44 8dbe 3a41 94be
000000a0: 0c96 6c3e bb36 2fbf bbfa cfbe f138 77be
000000b0: fbf5 c8be 7a66 983e d2f3 8cbc 913e 2bbf
000000c0: 5231 8fbe 0b9d 09bf 8e84 d63e 44f8 ecbe
000000d0: d2d9 09bf 2d9f 1d3f ff58 823e 7ff5 6ebf
000000e0: 977d 7bbe bacf 3bbe 785c d6be 1486 73be
000000f0: 8722 68be 1d5b 02bf 5b8c 253e f030 003c
00000100: b2a0 723e c128 10bf 0c0a 0abe b42c 04bd
00000110: b427 35bf bedf 04bf 124a 673e c6ae 3d3f
00000120: c6b8 36bf 9b1d 473e 3888 3abf 3cb4 6a3f
00000130: 8392 a9be 85ea 50bf 343e d23e d729 3bbf
00000140: 9fee 3bbf 4f27 de3d 23fe b4be bb26 79be
00000150: f916 eebe e808 323f 8eca 133f dc22 963e
00000160: f5ee 72bf 7ef1 a3be f8dd cdbe 6483 09bf
00000170: 6af3 fd3d cde8 15bf e0dd 1bbf 3693 aa3e
00000180: 9c5c c3be 3c78 e4be 5c4d b63e cde3 27bf
00000190: 7829 433f d184 133f 6e12 21be 828a 09bf
000001a0: ff2e a73e 3031 71be 3f8b 8abe c8cd 07bf
000001b0: 7502 74be c855 ed3e 6b79 943e 5335 79bf
000001c0: 445b 2ebe 8fa8 49bf 0259 1e3f 3135 4fbe
000001d0: 3efb b6be 76cc 473f 50b8 b53e c213 df3d
000001e0: 5493 19bf 0417 0e3f 4aa3 11bf ebaa 21bf
000001f0: 3cea f0bd 1ed5 7fbf b0f2 8e3c e1f7 103f
00000200: 732b 1dbe 9bbb 723f 4f2e 0c3f 8486 1bbf
00000210: b191 adbe dc68 54bf 161d 473f f66e 4b3f
00000220: cc4e 6ebf e4c0 063e eb34 353f 96cb 45bf
00000230: f71c 353f 1550 cbbd 2133 553f 9cdd 48bf
00000240: f6b0 593e a9a7 5dbf e424 0c3f c3e7 29bf
00000250: a21c d6be 1cac 62bf dab6 cbbe 8860 623f
00000260: 7249 cebe 7895 e2be cd2e 4fbf 617a 30bf
00000270: 6e02 42bf bb66 d4be 7f48 d4be f4d6 b53e
00000280: d740 34be 2677 1b3f 5048 583f fe9c 2bbe
00000290: 099b 253f 1759 1bbf 44e4 8dbe 520c 6a3f
000002a0: ba80 fc3e 24af 6d3f 1781 18bf 30b1 4b3f
000002b0: 9ea0 04bf a03a 783f 9da6 0bbf e28b 523e
000002c0: 3ea8 6e3f 9f08 4cbf 637c 503f cd39 293f
000002d0: f81e cbbe 0204 283f 1206 20bf b251 4ebf
000002e0: 2f11 ab3e 8f2b 243f 0651 133f 8be2 453f
000002f0: d189 a33d 4030 58bb aade a83d 145d 4dbf
00000300: aa88 dd3e e90a 60bf 1610 69bf 0f50 c6be
00000310: 9b69 febe 8afc 46bf 6624 60bd 701e 923f
00000320: 7808 cdbe b3b2 30bf 682f 39bf a8d8 143f
00000330: 6edc 07bf 2fbe babe 200c 81bd 5703 eebe
00000340: 716a 3bbf 450f 13be 1ed2 58bf 2411 9dbc
00000350: 372c 5bbf 0255 2f3f 5ed5 22be e782 9fbe
00000360: ea06 05bf 1fb8 08be 4524 49bf 00f9 6b3c
00000370: 0c13 4b3f c21e dabe 89cf b3be 5a01 43bf
00000380: 74a8 d53e 8ff1 0abf cc6d 5b3f 0860 e7be
00000390: 9261 ee3e 9788 52bf 151e e2be 06ac 42bf
000003a0: e020 37bf 44cd dbbe 2b63 1abf 639c 90bf
000003b0: a312 65bf 6fd6 3b3f 9670 81bd 5ab4 48bf
000003c0: b0bd acbe e321 66bf cabd f7bd 2cc7 3bbf
000003d0: 11b5 cabe 042e a13e 3ee9 643f ac21 b6be
000003e0: 0652 21bf 2c61 8ebe a442 88be c074 14bf
000003f0: 2e64 aebd 6254 16bf 6758 2cbf 4204 c3be

lstm1.bias_hh_l0 f4 [256]
0.73294395 -0.41719615 0.51944834 -0.30228326 -0.3023975 -0.32732671 -0.08635071 0.8752382
-0.9079946 0.33239907 -0.4001876 0.8165351 -0.38125843 -0.4013806 0.39746705 -0.008885704
-0.894367 0.16497241 -0.48341063 0.12384601 -0.6382829 0.6921011 0.52824295 -0.09805049
-0.5890622 0.121038556 -0.3883507 -0.07844051 0.38013768 -0.34229702 -0.2809463 0.23431662
-0.1510254 -0.68249583 0.8350328 -0.49584663 0.9145222 0.85425436 -0.3420204 -0.39523453
0.22445357 -0.5652287 -0.44894204 -0.116637096 -0.4531667 0.32549047 0.086346656 -0.74059707
-0.30658057 -0.61965466 0.5482205 -0.50206286 -0.49106622 0.59058243 0.26975456 -0.8824443
-0.32423708 -0.17527111 -0.36803517 -0.38635105 -0.18536931 -0.5966381 0.08873333 -0.056351975
0.26794207 -0.70451456 -0.102015376 -0.09203598 -0.6860355 -0.5978894 0.09545873 0.58617043
-0.54019606 0.12314104 -0.6202585 0.8501579 -0.2684008 -0.69246036 0.3558804 -0.64366984
-0.6176997 -0.13077682 -0.35135978 -0.22310758 -0.4168889 0.7080029 0.49848375 0.069287844
-1.0018302 -0.43734935 -0.34458745 -0.4316913 0.23299757 -0.79048234 -0.6288771 0.2336846
-0.44897825 -0.36984918 0.4579634 -0.5818529 0.72328156 0.6767155 -0.043049514 -0.6073377
0.3341042 -0.22193222 -0.21771851 -0.42875013 -0.18657565 0.46564084 0.15611206 -0.9815996
-0.09698984 -0.76458 0.6635794 -0.2244909 -0.24051738 0.77932125 0.33896828 -0.028309599
-0.42936328 0.5779624 -0.55863315 -0.559658 -0.15270264 -0.9715973 -0.13766351 0.6699151
-0.058800057 0.9541992 0.5898564 -0.36835307 -0.24426919 -0.8435504 0.6782349 0.6901629
-0.93149215 0.17223388 0.63887054 -0.6566691 0.8132831 0.042536914 0.92344147 -0.7155823
0.16877079 -0.91196233 0.4472395 -0.6991284 -0.38685608 -0.87324846 -0.48071223 0.90798724
-0.3207227 -0.4114033 -0.83367753 -0.5790079 -0.7173718 -0.34369937 -0.41607744 0.45906693
-0.103649184 0.6768264 0.8066441 -0.102651045 0.6005381 -0.66141 -0.35403702 0.7962675
0.43297797 0.72829866 -0.71276414 0.8964252 -0.5196176 0.84555805 -0.37288398 0.16397844
0.9411764 -0.7646171 0.8743228 0.69216 -0.30828094 0.62325716 -0.48737395 -0.7091713
0.2634779 0.5434581 0.733018 0.91008353 -0.005385831 -0.031260803 0.087361075 -0.7667235
0.34153822 -0.8057962 -0.8492178 -0.4452926 -0.45660877 -0.57039815 0.09561452 1.083855
-0.3480215 -0.61356366 -0.726255 0.60517 -0.39545658 -0.47198597 0.045908377 -0.45771155
-0.81245387 -0.022998326 -0.7480181 -0.12199088 -1.0145127 0.72136295 -0.07944087 -0.37392378
-0.49342966 -0.087489255 -0.60700285 -0.121342614 0.7294045 -0.47927484 -0.3940276 -0.66660374
0.37281588 -0.44684687 1.017335 -0.5016339 0.6365665 -0.9746281 -0.5470175 -0.7663312
-0.83251035 -0.57618153 -0.70615005 -1.1420896 -0.8031782 0.80520344 -0.051595 -0.7721743
-0.50428873 -0.9029673 -0.024913058 -0.7394926 -0.59562427 0.32253215 0.84428036 -0.32788163
-0.634394 -0.15008393 -0.34049636 -0.5121801 -0.18533616 -0.5875374 -0.6861981 -0.40273583
00000000: 37a2 3b3f bc9a d5be 91fa 043f dfc4 9abe
00000010: d8d3 9abe 5e97 a7be a4d8 b0bd 9c0f 603f
00000020: 5672 68bf 3630 aa3e 64e5 ccbe 7208 513f
00000030: 4e34 c3be c281 cdbe cd80 cb3e 5895 11bc
00000040: 3cf5 64bf 87ee 283e 9981 f7be faa2 fd3d
00000050: 8266 23bf 8a2d 313f ee3a 073f b2ce c8bd
00000060: c8cc 16bf 10e3 f73d e7d5 c6be 6ba5 a0bd
00000070: 68a1 c23e 8e41 afbe 32d8 8fbe b2f0 6f3e
00000080: 67a6 1abe 0cb8 2ebf b6c4 553f 9cdf fdbe
00000090: 201e 6a3f 6ab0 5a3f 4c1d afbe 2e5c cabe
000000a0: 28d7 653e d4b2 10bf bbdb e5be 6edf eebd
000000b0: 7705 e8be b0a6 a63e 84d6 b03d c597 3dbf
000000c0: 21f8 9cbe b0a1 1ebf 2e58 0c3f 3187 00bf
000000d0: 086d fbbe 6930 173f 451d 8a3e dfe7 61bf
000000e0: 6702 a6be 457a 33be 1b6f bcbe cecf c5be
000000f0: 74d1 3dbe 46bd 18bf d2b9 b53d 54d1 66bd
00000100: b42f 893e 115b 34bf 70ed d0bd 5c7d bcbd
00000110: 06a0 2fbf 480f 19bf de7f c33d 440f 163f
00000120: 4a4a 0abf 5f31 fc3d 43c9 1ebf f3a3 593f
00000130: d46b 89be 1545 31bf f535 b63e 8cc7 24bf
00000140: 9121 1ebf 5cea 05be 6ee5 b3be 5076 64be
00000150: 7672 d5be ae3f 353f 4339 ff3e c9e6 8d3d
00000160: f93b 80bf 41ec dfbe c46d b0be a406 ddbe
00000170: ea96 6e3e 0d5d 4abf 17fe 20bf 044b 6f3e
00000180: 7ae0 e5be df5c bdbe 2e7a ea3e 50f4 14bf
00000190: fb28 393f 3a3d 2d3f b054 30bd 7c7a 1bbf
000001a0: b50f ab3e 3342 63be 9af1 5ebe 2385 dbbe
000001b0: b00d 3fbe 7a68 ee3e d7db 1f3e 1d4a 7bbf
000001c0: 9ca2 c6bd 84bb 43bf 57e0 293f f1e0 65be
000001d0: 304a 76be 9981 473f 408d ad3e 88e9 e7bc
000001e0: 81d5 dbbe 58f5 133f 9502 0fbf bf45 0fbf
000001f0: 155e 1cbe 9aba 78bf aaf7 0cbe 8e7f 2b3f
00000200: 54d8 70bd 6646 743f d400 173f c698 bcbe
00000210: b421 7abe ebf2 57bf cda0 2d3f 84ae 303f
00000220: 4576 6ebf 145e 303e 058d 233f 771b 28bf
00000230: 5233 503f 303b 2e3d a966 6c3f 6730 37bf
00000240: 40d2 2c3e 5d76 69bf 93fc e43e 14fa 32bf
00000250: 0012 c6be 368d 5fbf ea1f f6be da71 683f
00000260: c435 a4be 74a3 d2be e46b 55bf dd39 14bf
00000270: aea5 37bf 5df9 afbe 1a08 d5be d20a eb3e
00000280: 0646 d4bd 7f44 2d3f 3a80 4e3f b63a d2bd
00000290: ddbc 193f 2a52 29bf 5744 b5be 30d8 4b3f
000002a0: 4aaf dd3e c871 3a3f b677 36bf 1f7c 653f
000002b0: a905 05bf 7e76 583f a6ea bebe f7e9 273e
000002c0: f0f0 703f f2bd 43bf 9ed3 5f3f 6631 313f
000002d0: 00d7 9dbe c88d 1f3f 1489 f9be 408c 35bf
000002e0: 93e6 863e 1220 0b3f 11a7 3b3f 3cfb 683f
000002f0: a07b b0bb 540b 00bd 5dea b23d fe47 44bf
00000300: 19de ae3e a948 4ebf 5666 59bf 64fd e3be
00000310: a0c8 e9be 9d05 12bf 8cd1 c33d c3bb 8a3f
00000320: e02f b2be 8212 1dbf d9eb 39bf 6cec 1a3f
00000330: 4979 cabe 25a8 f1be 6c0a 3c3d 2b59 eabe
00000340: fafc 4fbf fc66 bcbc 1d7e 3fbf 5bd6 f9bd
00000350: 8ddb 81bf 3eab 383f e5b1 a2bd f072 bfbe
00000360: d0a2 fcbe 912d b3bd 8a64 1bbf 7a82 f8bd
00000370: 41ba 3a3f 8363 f5be fcbd c9be 8ba6 2abf
00000380: b9e1 be3e 1dc9 e4be 0938 823f 146b 00bf
00000390: 06f6 223f 3a81 79bf 5709 0cbf 482e 44bf
000003a0: 661f 55bf a280 13bf 40c6 34bf fe2f 92bf
000003b0: 169d 4dbf d021 4e3f 4755 53bd 37ad 45bf
000003c0: 1119 01bf dd28 67bf 7816 ccbc 634f 3dbf
000003d0: d57a 18bf ef22 a53e c222 583f 1ae0 a7be
000003e0: a567 22bf 9aaf 19be 8a55 aebe 3c1e 03bf
000003f0: c3c8 3dbe da68 16bf aeaa 2fbf 6433 cebe

lstm2.weight_ih_l0 f4 [128, 64]
-0.96780205 -0.82343113 0.52489895 -0.22888985 0.22427182 0.4643025 -0.97290385 0.1738136
0.80063283 0.065533444 0.40578502 -0.0996173 0.0017565549 -0.5985416 0.48090467 0.5502052
-0.24007417 0.47188795 -0.7484778 0.15824719 0.17559372 -0.21568832 -0.8342376 -0.6456647
0.40559074 0.31565195 0.7141503 0.57619923 -0.28312656 0.4226424 -0.42667544 -0.27268
0.8952914 -0.4651908 0.77027243 0.0056934245 -0.9778752 -0.04378428 0.48943347 -0.40592554
-0.57252467 -0.5154501 0.58439094 -0.6165928 0.5358168 -1.1044594 -0.24135204 0.0077706436
-0.53311574 0.3929236 -0.40776813 -0.35959283 0.16737504 0.83807045 -2.3529274 0.24459852
-0.804849 0.006629886 -0.06934479 -0.080035895 -0.5221048 -0.6872922 -0.6791261 -0.11124511
-0.17414337 -0.74247086 -0.54827523 0.40849212 0.20997588 0.45177647 -0.31079477 -1.0949277
-0.039941497 0.23439232 -0.41400683 0.81403136 0.09123663 -0.6612467 -0.27240664 0.5575901
-0.22551562 0.1427607 -0.69248325 1.1837454 0.3680779 0.90412694 0.0021840166 -0.16661122
-0.0037852817 0.28335643 -0.09757432 0.5350668 1.2044557 0.67790395 0.34630662 -0.43314818
0.5009559 0.007696539 -1.0968242 -0.06010759 -1.1603814 -0.65981126 0.3460198 0.14681484
-0.19066964 -0.6543513 0.12634498 -0.4538421 0.60407925 -0.42742288 0.20544286 0.31990746
0.051552605 0.24106133 -1.1188424 -0.67197686 0.23874876 -1.0719031 1.2205914 0.40419358
-0.7922042 -0.41879523 -0.21354565 0.0043331236 0.2432327 0.29358417 0.35380375 0.18378413
-0.10447807 0.42644376 -0.25374967 0.017329447 -0.48374373 -0.1735439 0.1798828 -1.2251598
-0.1896123 -0.6045953 -0.51314205 0.87132925 0.33356592 -0.04568671 -0.99105644 -0.49955693
0.7951175 0.71882004 0.5310201 0.3209748 -0.2503667 1.0560904 -0.08992776 -0.83016294
0.027204864 -0.24502358 0.03006642 -0.1950349 1.2839124 -0.22878323 0.3646273 0.6461918
-0.48677272 0.11784589 -1.5410492 0.5570025 -0.96585786 0.8080328 0.46447635 0.35951075
0.24954551 0.3411559 -0.29412574 -0.3263327 -0.35378048 -1.4414268 0.43381548 0.52717626
-0.19640177 -0.19522929 -0.97740054 0.0021946132 -0.36788198 -0.9577199 1.0767721 -0.25956315
0.6438297 -0.16305605 0.35369533 -0.42912367 0.589249 0.20751612 0.7024146 1.244485
-0.6032395 0.63850576 -0.43298215 0.38572204 0.57101274 -0.73467535 -0.3757625 -0.7551546
0.28833446 -0.7739305 -0.1794108 0.9054313 -0.03243622 -0.12326384 -1.0635372 -0.9384759
0.23969279 0.8045872 0.19708389 0.01785959 -0.12933886 0.011963278 0.50570554 -1.0005933
-0.15341333 -0.45856822 0.2801341 0.97982436 0.6025714 -0.13904311 0.37014788 0.67703575
1.2027109 -0.23753977 -1.149586 0.12818033 -1.1853669 -0.45821467 -0.037639365 0.63535
0.45895734 0.5027655 -0.104000784 0.81160825 -0.67672944 -0.915497 1.0130093 -0.038100656
0.16412675 -0.6643584 -0.08414764 0.04953346 -0.5292928 -0.7052414 1.3719716 -0.14629918
0.34025997 -0.93578595 -0.17055826 -0.60615665 0.34618297 1.5136795 1.1095822 0.031878278
00000000: e0c1 77bf 62cc 52bf c75f 063f 1a62 6abe
00000010: 83a7 653e 0fb9 ed3e 3a10 79bf 31fc 313e
00000020: 46f6 4c3f 6636 863d 0ec3 cf3e 2804 ccbd
00000030: 343c e63a 063a 19bf 2339 f63e 3fda 0c3f
00000040: 01d6 75be 4c9b f13e 3e9c 3fbf 8d0b 223e
00000050: d7ce 333e 66dd 5cbe 9890 55bf 484a 25bf
00000060: 97a9 cf3e 229d a13e 8ed2 363f cb81 133f
00000070: f7f5 90be 9664 d83e 3475 dabe b79c 8bbe
00000080: d131 653f 7d2d eebe 9330 453f e88f ba3b
00000090: 0756 7abf 2557 33bd 0697 fa3e 79d5 cfbe
000000a0: fa90 12bf 8af4 03bf a59a 153f 07d9 1dbf
000000b0: 4a2b 093f ed5e 8dbf fd24 77be e2a0 fe3b
000000c0: 467a 08bf 482d c93e fcc6 d0be 8d1c b8be
000000d0: 5d64 2b3e c98b 563f 5d96 16c0 0978 7a3e
000000e0: 960a 4ebf 843f d93b a404 8ebd dce9 a3bd
000000f0: a9a8 05bf 62f2 2fbf 35db 2dbf 7ad4 e3bd
00000100: a452 32be 9212 3ebf c45b 0cbf e125 d13e
00000110: eb03 573e 3f4f e73e 7e20 9fbe 9726 8cbf
00000120: b299 23bd 8a04 703e b4f8 d3be 5c64 503f
00000130: 45da ba3d 7747 29bf e278 8bbe 3abe 0e3f
00000140: 91ed 66be dc2f 123e 9546 31bf f884 973f
00000150: b574 bc3e dd74 673f b821 0f3b 229c 2abe
00000160: 7d12 78bb 1814 913e 0cd5 c7bd 23fa 083f
00000170: 9b2b 9a3f 1d8b 2d3f 1a4f b13e 99c5 ddbe
00000180: a53e 003f 4033 fc3b bc64 8cbf 6033 76bd
00000190: 6187 94bf 64e9 28bf 8229 b13e a156 163e
000001a0: e73e 43be 9183 27bf 9460 013e fe5d e8be
000001b0: f0a4 1a3f 2cd7 dabe 9d5f 523e e9ca a33e
000001c0: d328 533d c8d8 763e 3a36 8fbf ad06 2cbf
000001d0: 8e7a 743e 1f34 89bf 573c 9c3f 76f2 ce3e
000001e0: e5cd 4abf 546c d6be b6ab 5abe e0fc 8d3b
000001f0: fe11 793e aa50 963e c425 b53e e831 3c3e
00000200: 99f8 d5bd d656 da3e 7aeb 81be 7cf6 8d3c
00000210: 42ad f7be 7eb5 31be 3233 383e 09d2 9cbf
00000220: ba29 42be c2c6 1abf 475d 03bf 6f0f 5f3f
00000230: 27c9 aa3e fd21 3bbd e0b5 7dbf edc5 ffbe
00000240: d28c 4b3f 9704 383f eff0 073f cf56 a43e
00000250: 1030 80be f82d 873f 0c2c b8bd 8f85 54bf
00000260: bcdc de3c 76e7 7abe da4d f63c 3bb7 47be
00000270: 3e57 a43f 2746 6abe 6eb0 ba3e d36c 253f
00000280: 463a f9be 3059 f13d 1a41 c5bf b797 0e3f
00000290: 7642 77bf 3ddb 4e3f d8cf ed3e cb11 b83e
000002a0: dc88 7f3e fcab ae3e a697 96be 1415 a7be
000002b0: b722 b5be ac80 b8bf 101d de3e 06f5 063f
000002c0: 8c1d 49be 30ea 47be ec36 7abf 80d3 0f3b
000002d0: 075b bcbe 222d 75bf abd3 893f 76e5 84be
000002e0: 06d2 243f 2af8 26be 8e17 b53e 19b6 dbbe
000002f0: 06d9 163f 1b7f 543e 71d1 333f 494b 9f3f
00000300: e76d 1abf 1d75 233f d6af ddbe 5c7d c53e
00000310: e42d 123f af13 3cbf f163 c0be d051 41bf
00000320: 93a0 933e 4f20 46bf 77b7 37be 58ca 673f
00000330: d8db 04bd c171 fcbd fd21 88bf f53f 70bf
00000340: 0772 753e 6df9 4d3f 5cd0 493e 464e 923c
00000350: 6871 04be a001 443c eb75 013f 7113 80bf
00000360: 6218 1dbe 74c9 eabe bd6d 8f3e c5d5 7a3f
00000370: 1f42 1a3f 5161 0ebe 0684 bd3e 3752 2d3f
00000380: 6ef2 993f a03d 73be a225 93bf b441 033e
00000390: 1aba 97bf 1d9b eabe bc2b 1abd 4ca6 223f
000003a0: 75fc ea3e 3db5 003f 5dfe d4bd 8fc5 4f3f
000003b0: 243e 2dbf 035e 6abf 4aaa 813f 6f0f 1cbd
000003c0: d810 283e 6413 2abf 9955 acbd 99e3 4a3d
000003d0: bc7f 07bf b38a 34bf c49c af3f 74cf 15be
000003e0: 8e36 ae3e ab8f 6fbf d3a6 2ebe 152d 1bbf
000003f0: e53e b13e 40c0 c13f ca06 8e3f cc92 023d

lstm2.weight_hh_l0 f4 [128, 32]
-1.749418 -0.46042234 0.17721826 -0.13655655 -0.35344166 -0.8448877 -0.22654355 0.25917852
-0.75268614 0.115294926 0.2282849 0.50853086 -0.07929158 0.18832427 0.68171215 0.040528834
-0.25238255 -0.28916696 -3.23321 -0.5002465 0.07164957 0.05231034 0.40916458 0.27072716
-0.5663306 0.87056106 -0.35581 -0.30750158 0.33391953 0.08082686 0.18498647 0.23267627
-0.05697005 -0.2613176 0.41503486 -0.7856521 -0.41852733 -0.26638833 0.2726466 0.71447426
-0.518118 -0.8999417 0.28681576 -0.23423217 -0.4362448 0.41232798 0.5636955 0.19711208
-0.57926565 0.50589 -0.4342702 -0.29983115 -0.027312808 -0.26417822 -0.3362753 0.6073306
-1.0964321 -0.40721118 -0.64198494 0.919001 0.7012081 0.14202586 0.40357512 0.08848566
0.65627736 -0.23187503 -0.18699658 -0.12526874 -0.0394016 0.084771 0.7757596 0.41801178
-0.9519582 -0.49491543 0.08144165 -0.091987595 0.14748745 0.040240437 0.37658334 0.32358074
0.12348117 0.54896885 0.4892852 -0.27802563 0.4131211 0.59597766 -0.92221457 0.70420957
-0.6829987 -0.5259237 0.14113407 0.8522752 -0.2830434 0.7546527 0.79518914 0.67356735
1.631359 0.20107032 0.05156309 -0.86033535 -0.427076 -0.14944403 3.260724 -0.016901154
-0.6051589 -0.62111694 0.28231817 -0.027535843 -0.08386215 -0.2951615 0.2047438 0.22571689
0.48890847 0.42543644 -0.049099986 -0.19694349 0.17642859 -0.014578875 -0.8437675 0.65121734
-0.16023576 -0.9969957 -0.26520768 1.1075968 -0.08899075 0.43267184 0.6749021 0.8911687
0.33797532 -0.10560325 -0.6737068 0.44928315 0.024607211 0.57746464 0.7985243 0.21508344
0.3615942 -0.988683 -0.6226265 -0.51841456 0.74405986 -0.46795866 -0.3584128 -0.42028782
0.10485712 0.09825388 0.5342988 0.48606947 0.807354 0.13726653 -1.0898647 -0.4689856
0.46685958 -0.8227024 0.6660784 0.8491874 -0.72143686 -0.2697469 -0.46037078 0.60471815
0.36296362 -0.78400946 0.14208603 0.2163128 0.8500436 0.57673293 0.496177 1.1641389
0.3220106 -0.751887 0.070257284 -0.7839097 0.3787433 -0.057828836 0.06360681 0.034871724
0.0004623152 0.65768313 -0.48795187 0.084302664 1.0459721 0.776078 -0.8816097 0.33606878
0.6342442 -0.21679476 0.07620594 1.0115623 -0.124886364 -0.1489792 0.10527009 0.9838459
-0.9159476 0.75430065 0.6262946 -0.84905326 -0.45522743 -0.78490907 -0.12999009 -0.8855848
-0.43174502 0.7638351 0.40790197 0.660712 -0.20494047 0.4801653 0.5632864 0.8383499
0.14883529 -0.29616037 -0.25974464 -0.3259206 -0.38582897 -0.19829985 0.46775088 0.6708168
-0.11875089 0.49915776 -0.9291049 -0.6861061 0.4908587 0.311118 0.4795969 -0.32275695
-0.108111575 -0.056498185 0.41617772 -0.7616235 -0.6326523 -0.77655524 -0.46689564 -0.12142302
-0.91641456 0.37150186 0.3940283 0.818349 -0.75894034 0.48977932 0.6389909 0.2121076
-0.19652908 0.16839308 -0.2655351 -0.7069106 -0.3305117 0.32344684 0.56640387 0.5018421
-1.2345757 0.16340727 -0.5930283 -0.07529292 0.46778595 0.9762886 0.6782069 0.4262163
00000000: eeec dfbf 7abc ebbe b478 353e 7bd5 0bbe
00000010: 4ef6 b4be 8f4a 58bf 08fb 67be 0cb3 843e
00000020: 0ab0 40bf bf1f ec3d 84c3 693e 142f 023f
00000030: a063 a2bd 14d8 403e b084 2e3f 9001 263d
00000040: 4938 81be b10d 94be eaec 4ec0 2810 00bf
00000050: 02bd 923d 5e43 563d 057e d13e c09c 8a3e
00000060: 0bfb 10bf 17dd 5e3f ba2c b6be d970 9dbe
00000070: 80f7 aa3e 8e88 a53d 186d 3d3e b042 6e3e
00000080: 6d59 69bd 6ccb 85be 737f d43e 7f20 49bf
00000090: 3749 d6be 0d64 88be 5698 8b3e c9e7 363f
000000a0: 62a3 04bf 9462 66bf 84d9 923e 8fda 6fbe
000000b0: 7a5b dfbe a71c d33e 594e 103f c0d7 493e
000000c0: c14a 14bf 0282 013f aa58 debe 7883 99be
000000d0: 1cbf dfbc 5e42 87be 472c acbe 057a 1b3f
000000e0: e357 8cbf fc7d d0be 2059 24bf a643 6b3f
000000f0: 6082 333f 3a6f 113e 66a1 ce3e f837 b53d
00000100: cb01 283f a670 6dbe 087c 3fbe 7346 00be
00000110: 9263 21bd 6b9c ad3d 2e98 463f a405 d63e
00000120: 88b3 73bf 8e65 fdbe e1ca a63d fe63 bcbd
00000130: f306 173e 28d3 243d 88cf c03e 60ac a53e
00000140: b2e3 fc3d 3989 0c3f 9783 fa3e 6059 8ebe
00000150: 9c84 d33e fe91 183f 4116 6cbf 1447 343f
00000160: 01d9 2ebf f0a2 06bf 7385 103e b52e 5a3f
00000170: 11eb 90be eb30 413f 8491 4b3f e96e 2c3f
00000180: 5fd0 d03f 61e5 4d3e d233 533d f03e 5cbf
00000190: b5a9 dabe db07 19be b4af 5040 4a74 8abc
000001a0: b2eb 1abf 8501 1fbf 028c 903e d992 e1bc
000001b0: ebbf abbd 681f 97be 5ca8 513e 5422 673e
000001c0: 3652 fa3e ced2 d93e 111d 49bd 8eab 49be
000001d0: b2a9 343e 3cdc 6ebc 2601 58bf 2eb6 263f
000001e0: d814 24be 1c3b 7fbf 4dc9 87be bbc5 8d3f
000001f0: c840 b6bd 2a87 dd3e 62c6 2c3f a223 643f
00000200: 1a0b ad3e 8446 d8bd 0d78 2cbf 7108 e63e
00000210: 1095 c93c b9d4 133f 176c 4c3f d53e 5c3e
00000220: e022 b93e 541a 7dbf 7364 1fbf d1b6 04bf
00000230: b57a 3e3f 4798 efbe e281 b7be f72f d7be
00000240: 54bf d63d 5539 c93d cec7 083f 19de f83e
00000250: c0ae 4e3f 998f 0c3e b080 8bbf e11e f0be
00000260: 3808 ef3e a09c 52bf 1d84 2a3f 5864 593f
00000270: 16b0 38bf 441c 8abe b8b5 ebbe cfce 1a3f
00000280: 5ed6 b93e d8b4 48bf 007f 113e 1a81 5d3e
00000290: 759c 593f c5a4 133f e90a fe3e 8102 953f
000002a0: 93de a43e ab7b 40bf 0de3 8f3d 4eae 48bf
000002b0: a4ea c13e eedd 6cbd 4a44 823d a7d5 0e3d
000002c0: e562 f239 ec5d 283f d4d4 f9be e0a6 ac3d
000002d0: 6ae2 853f 0cad 463f 2cb1 61bf 3511 ac3e
000002e0: d45d 223f 72ff 5dbe dc11 9c3d e07a 813f
000002f0: 6cc4 ffbd 018e 18be d897 d73d 53dd 7b3f
00000300: 8b7b 6abf d919 413f d854 203f 8e5b 59bf
00000310: 9213 e9be cdef 48bf 1f1c 05be afb5 62bf
00000320: af0d ddbe b28a 433f 87d8 d03e 6c24 293f
00000330: eadb 51be 3ad8 f53e 8a33 103f 199e 563f
00000340: 4768 183e 55a2 97be 40fd 84be 11df a6be
00000350: 608b c5be 1e0f 4bbe 0b7d ef3e a6ba 2b3f
00000360: ab33 f3bd 9b91 ff3e d2d9 6dbf a6a4 2fbf
00000370: d551 fb3e dc4a 9f3e ba8d f53e 6640 a5be
00000380: 9a69 ddbd a46a 67bd 3f15 d53e c2f9 42bf
00000390: 80f5 21bf 53cc 46bf f20c efbe a2ac f8bd
000003a0: 259a 6abf 7e35 be3e 14be c93e 527f 513f
000003b0: ea49 42bf 5bc4 fa3e e894 233f bc32 593e
000003c0: eb3e 49be 3c6f 2c3e 37f4 87be 18f8 34bf
000003d0: d438 a9be d39a a53e d8ff 103f b978 003f
000003e0: 9406 9ebf 3c54 273e b4d0 17bf 2d33 9abd
000003f0: a481 ef3e 0dee 793f f89e 2d3f 0639 da3e

lstm2.bias_ih_l0 f4 [128]
-0.13431865 -1.0922422 -1.7018554 -1.5650597 -1.6369518 -1.4102584 1.3829932 0.38503253
-1.5196806 0.07515763 -1.7423764 -2.2832549 -1.6076224 -1.0482876 -1.193346 -1.6391243
-1.5112385 -0.36327276 -2.090533 -1.5099854 0.22035861 -1.254437 0.4940494 -1.6923945
-1.245653 0.7233367 -2.21554 1.0310286 -1.6942594 -1.225318 -1.5231271 -0.88626176
0.86352277 -0.6371817 -1.4115419 -1.6489154 -0.7916913 -0.65628326 0.25090998 0.67537904
-0.9899177 -0.56967086 -1.5346491 -1.2592263 -0.99367976 -0.7469745 -1.5522227 -1.4458678
-1.0856037 0.013528064 -0.91145706 -0.9530093 -0.15183032 -0.91442245 0.11946805 -1.6692995
-1.2955773 0.66674155 -1.4931667 1.0159138 -1.0686963 -0.9479385 -1.0942127 -1.0930144
-1.3833843 0.41694975 -0.011817947 0.46560875 0.6663624 0.16579874 -0.58221424 -0.70893425
0.38414633 0.45264623 -0.60584533 -0.13046692 0.3039677 0.1712657 -0.56003845 -0.66449875
0.6940406 -1.0031848 0.004424992 0.5911896 -0.7086382 -0.105081946 0.7291188 -0.467131
0.6572423 1.3019636 -0.33662766 -0.70513564 -0.34594607 -1.0450875 -1.0334718 -0.0910724
-2.0838275 -1.7628291 -1.5025973 -2.5148335 -2.154865 -1.5561978 -2.719569 -2.4021587
-2.0712934 -2.1630054 -2.2237318 -1.1872517 -2.0083613 -1.8443403 -1.8849548 -2.048284
-2.2437062 -2.1859987 -1.7826087 -2.260088 -1.9259698 -1.5096774 -2.2705896 -1.7988875
-1.6581086 -2.5565438 -1.6829247 -2.4414387 -1.8513439 -1.9555658 -1.9211117 -1.2803986
00000000: d48a 09be 98ce 8bbf 66d6 d9bf e053 c8bf
00000010: a387 d1bf 5983 b4bf ec05 b13f fc22 c53e
00000020: e584 c2bf 3eec 993d 3106 dfbf d920 12c0
00000030: 92c6 cdbf 4a2e 86bf 90bf 98bf d3ce d1bf
00000040: 4370 c1bf e3fe b9be 4bcb 05c0 3447 c1bf
00000050: b0a5 613e 6491 a0bf 0bf4 fc3e 62a0 d8bf
00000060: 8f71 9fbf 982c 393f 68cb 0dc0 bff8 833f
00000070: 7edd d8bf 38d7 9cbf d4f5 c2bf 0de2 62bf
00000080: d40f 5d3f 571e 23bf 68ad b4bf a90f d3bf
00000090: 48ac 4abf 2e02 28bf 4677 803e a4e5 2c3f
000000a0: 3f6b 7dbf f3d5 11bf 626f c4bf 542e a1bf
000000b0: cc61 7ebf b939 3fbf 3caf c6bf 3212 b9bf
000000c0: 10f5 8abf d0a4 5d3c 4055 69bf 6bf8 73bf
000000d0: 6879 1bbe 9717 6abf aaab f43d 9bab d5bf
000000e0: 7ad5 a5bf 93af 2a3f 1620 bfbf 7709 823f
000000f0: 0acb 88bf 19ac 72bf 290f 8cbf e5e7 8bbf
00000100: bd12 b1bf 707a d53e 10a0 41bc 4564 ee3e
00000110: ba96 2a3f 25c7 293e fe0b 15bf b77c 35bf
00000120: d4ae c43e 3fc1 e73e ae18 1bbf 1f99 05be
00000130: a8a1 9b3e 4760 2f3e ae5e 0fbf 971c 2abf
00000140: a5ac 313f 5c68 80bf 86ff 903b 3458 173f
00000150: 5069 35bf 3435 d7bd 88a7 3a3f cb2b efbe
00000160: 0841 283f bea6 a63f 765a acbe c583 34bf
00000170: d81f b1be 6dc5 85bf ce48 84bf 2b84 babd
00000180: 6e5d 05c0 62a4 e1bf 1c55 c0bf 08f3 20c0
00000190: 4fe9 09c0 7d31 c7bf 6b0d 2ec0 f8bc 19c0
000001a0: 1290 04c0 ae6e 0ac0 9f51 0ec0 ddf7 97bf
000001b0: fe88 00c0 5813 ecbf 3346 f1bf 1617 03c0
000001c0: e298 0fc0 67e7 0bc0 862c e4bf 48a5 10c0
000001d0: 2e86 f6bf 1c3d c1bf 5751 11c0 f241 e6bf
000001e0: e73c d4bf 6a9e 23c0 146a d7bf 8840 1cc0
000001f0: d6f8 ecbf fb4f fabf fde6 f5bf 1ae4 a3bf

lstm2.bias_hh_l0 f4 [128]
-0.31444082 -1.076396 -1.5907155 -1.5256768 -1.6005442 -1.4996583 1.5543151 0.47447354
-1.6325015 -0.017553316 -1.9083307 -2.0297976 -1.6386875 -1.0222925 -1.1615517 -1.447774
-1.4634724 -0.15412706 -2.3228981 -1.5187155 0.18634966 -1.1209487 0.22499262 -1.5825593
-1.1576968 0.87136745 -1.9917064 1.0649327 -1.6165137 -1.4202752 -1.4892921 -0.8555344
0.87151265 -0.66429585 -1.3848747 -1.7463632 -0.9731903 -0.6456279 0.5822111 0.6318878
-0.89240736 -0.5713927 -1.5285511 -1.0085036 -1.0294275 -0.4347875 -1.3293793 -1.4652526
-1.2022333 -0.02785986 -1.0008266 -1.2074077 0.008532889 -0.76855457 0.11424707 -1.5949891
-1.2454158 0.70800066 -1.4052479 1.0323086 -1.1940507 -0.9725935 -1.1635972 -1.0229596
-1.3661299 0.6578723 0.20291455 0.2479346 0.8279952 0.46860927 -0.6454035 -0.91439927
0.47023624 0.66697323 -0.738319 -0.22496605 0.11197279 0.17849508 -0.7145034 -0.8300269
0.88546324 -0.9140445 -0.04469362 0.88518023 -0.890723 -0.0805349 0.7085261 -0.42493254
0.43904135 1.2798344 -0.27393538 -0.65610635 -0.41024998 -1.0564375 -0.7276568 0.02239884
-2.1594768 -1.7270296 -1.3356049 -2.395315 -1.9553717 -1.631434 -2.763218 -2.3985684
-1.8337708 -2.1665184 -2.137263 -1.0955198 -1.8959242 -1.8027685 -1.9316678 -2.0960681
-1.9269178 -2.3892744 -1.6305296 -2.2845511 -1.9895926 -1.6244966 -2.3594148 -1.6849575
-1.7785683 -2.566526 -1.5970963 -2.3169723 -1.7973562 -1.9076568 -1.7489413 -1.1401445
00000000: 63fe a0be 58c7 89bf 919c cbbf 6149 c3bf
00000010: a2de ccbf cef4 bfbf ccf3 c63f 32ee f23e
00000020: cff5 d0bf f9cb 8fbc 2e44 f4bf 34e8 01c0
00000030: 83c0 d1bf 7bda 82bf baad 94bf a950 b9bf
00000040: 1053 bbbf 7cd3 1dbe 5daa 14c0 4565 c2bf
00000050: 72d2 3e3e 3f7b 8fbf 7764 663e 4e91 cabf
00000060: 692f 94bf f011 5f3f 3cf0 febf b74f 883f
00000070: ece9 cebf 94cb b5bf 20a1 bebf 4d04 5bbf
00000080: 741b 5f3f 4b0f 2abf 9343 b1bf d488 dfbf
00000090: 0023 79bf df47 25bf c90b 153f 66c3 213f
000000a0: cf74 64bf cb46 12bf 90a7 c3bf a516 81bf
000000b0: 48c4 83bf 789c debe 1a29 aabf 668d bbbf
000000c0: c8e2 99bf 5c3a e4bc 161b 80bf 568c 9abf
000000d0: 88cd 0b3c febf 44bf 5efa e93d 9a28 ccbf
000000e0: c969 9fbf 883f 353f 2adf b3bf b022 843f
000000f0: a7d6 98bf e3fb 78bf c1f0 94bf 57f0 82bf
00000100: 58dd aebf 526a 283f d5c8 4f3e 91e2 7d3e
00000110: 7ef7 533f 8eed ef3e 2a39 25bf 1216 6abf
00000120: cec2 f03e c2be 2a3f 7902 3dbf 805d 66be
00000130: fd51 e53d 6ac7 363e b2e9 36bf a57c 54bf
00000140: b8ad 623f d2fe 69bf a810 37bd 2c9b 623f
00000150: 6c06 64bf 7bef a4bd f761 353f c290 d9be
00000160: 07ca e03e 9dd1 a33f 4241 8cbe 96f6 27bf
00000170: 490c d2be 5839 87bf b747 3abf c67d b73c
00000180: de34 0ac0 4e0f ddbf 1af5 aabf d74c 19c0
00000190: 9f49 fabf d4d2 d0bf 90d8 30c0 2582 19c0
000001a0: 00b9 eabf 3da8 0ac0 ebc8 08c0 fe39 8cbf
000001b0: a5ad f2bf 1ec1 e6bf e440 f7bf fb25 06c0
000001c0: 3ea5 f6bf dfe9 18c0 32b5 d0bf 1636 12c0
000001d0: f8aa febf 81ef cfbf a700 17c0 b0ac d7bf
000001e0: 20a8 e3bf f641 24c0 a76d ccbf 4649 14c0
000001f0: c50f e6bf 192e f4bf 4fdd dfbf 41f0 91bf

fc.weight f4 [1, 32]
0.19740376 -0.15461753 -0.24005347 0.063172676 -0.017734824 0.055465482 -0.0985126 0.37507018
-0.059167918 -0.40400326 -0.07726676 -0.12871349 -0.22049168 -0.3998208 0.11650816 -0.25764287
-0.15747327 0.19318262 0.21200152 -0.32986245 -0.10081263 0.042202644 -0.2933127 -0.087027974
-0.021294117 0.2745924 -0.01794979 -0.08639721 0.18055733 -0.29233086 -0.17282882 -0.25092444
00000000: 3624 4a3e 0f54 1ebe 94d0 75be ad60 813d
00000010: 9f48 91bc c62f 633d f9c0 c9bd 3309 c03e
00000020: 0f5a 72bd 84d9 cebe 093e 9ebd 78cd 03be
00000030: 92c8 61be 50b5 ccbe d59b ee3d c4e9 83be
00000040: ac40 21be aad1 453e ed16 593e bbe3 a8be
00000050: da76 cebd aedc 2c3d 152d 96be b93b b2bd
00000060: 0071 aebc 6097 8c3e 700b 93bc 05f1 b0bd
00000070: 05e4 383e 64ac 95be 0afa 30be 2b79 80be
